cifar_net.pth (torch, 251167 bytes, 10 tensors)

conv1.weight f4 [6, 3, 5, 5]
000000 5c 35 c4 3d 46 60 d8 bd 43 3d 31 be 37 89 6d bd
       0.0958049 -0.10565238 -0.17308526 -0.057992186
000010 96 c0 83 3d b7 dc b2 3c 71 44 50 be fa 81 28 3d
       0.06433217 0.02183376 -0.20338608 0.04113958
000020 db da 44 3d c6 b2 ce bc 8c 14 8a be 24 57 92 be
       0.04806028 -0.02523173 -0.269688 -0.28582108
000030 0f c9 52 3e e6 d7 45 3e cc 50 11 bd 16 60 a6 be
       0.2058451 0.1932064 -0.035477445 -0.32495183
000040 77 17 18 be 4c 4c 1f 3e ca ce 15 3e 73 92 12 be
       -0.14852701 0.15556449 0.14629665 -0.14313678
000050 90 83 82 be 8b a3 d1 bd 08 3f c6 3d a6 d5 5d 3d
       -0.25491 -0.102362715 0.09679991 0.05415883
000060 77 80 8c 3c 70 87 9f 3d 90 d3 8b bd 6f 96 60 bd
       0.0171511 0.077895045 -0.06827462 -0.054830965
000070 16 fc 8a bd 73 b3 a4 3d fa c8 f5 3c e0 12 39 be
       -0.06786363 0.0804204 0.03000306 -0.18073606
000080 51 b8 d2 3d 14 1a 01 3e b2 d9 04 3e 09 67 7b be
       0.10289062 0.12607604 0.12973669 -0.24551024
000090 b0 e3 7a be d1 3c 6b 3e 0c 05 95 3e a9 37 a9 3d
       -0.24500918 0.22972418 0.29105413 0.082625695
0000a0 65 12 93 be b8 c4 83 bd 4c 91 8b 3e 00 c6 97 3e
       -0.2872497 -0.064340055 0.2725929 0.2964325
0000b0 4d ef 3c 3c 84 61 30 be 9d ea b4 3c 70 12 0c 3e
       0.011531663 -0.172247 0.022084529 0.13678908
0000c0 ba 8c 87 3e 52 58 2e 3e 75 4a 55 3d 19 52 3d bd
       0.26474553 0.17025879 0.05207296 -0.046220873
0000d0 fa 4c 83 3b fa 8a cc bd 85 1f 09 3e 85 44 36 be
       0.004006979 -0.09987445 0.1339093 -0.17799576
0000e0 1a 6d a6 be 61 04 2f 3d d8 0c 64 3e 5c fc c8 3d
       -0.32505113 0.042728785 0.22270525 0.09813759
0000f0 1a d6 6a be 1a 1c 98 be 57 01 65 3e 03 bd 80 3e
       -0.22933236 -0.2970894 0.22363792 0.25144204
000100 7d 52 98 3d 8f a4 b7 be 37 21 54 be f4 40 4c 3e
       0.074376084 -0.35867736 -0.20715795 0.19946653
000110 7d 49 a4 3e ff 2b 84 3d 08 53 6b be 5d de 28 be
       0.32087317 0.06453704 -0.22980893 -0.16491075
000120 64 36 ff 3d 19 09 96 3e 28 54 14 3e 0f 4f 53 be
       0.12461546 0.29303816 0.14485228 -0.20635627
000130 a3 b3 72 3d d6 35 67 3e 79 4f 6a 3e a8 c8 37 3d
       0.059253346 0.2257913 0.22881879 0.044869095
000140 a3 86 d7 bd aa 1f 59 be b3 c7 c6 3d 6b 16 77 3e
       -0.10523727 -0.21203485 0.09706058 0.24129646
000150 67 af 84 3d 08 4c e1 3d d7 00 9f bc 38 c5 19 be
       0.06478768 0.1100083 -0.01940958 -0.15016639
000160 12 5c 14 3d 57 66 62 3e 00 eb 03 3e 62 b7 b0 3d
       0.036220618 0.22109352 0.12882614 0.086287275
000170 1a 8d 5f be 63 a4 b9 be 4a 26 e9 bd aa 82 32 3e
       -0.2183117 -0.3625823 -0.11384256 0.17432657
000180 ca dd 53 bc 5b 0a 5e be 7c 7f a4 be 89 83 ab be
       -0.012931297 -0.21683638 -0.32128513 -0.3349879
000190 4c 38 27 be 17 eb 34 be 84 19 2a 3d 30 d2 f5 bd
       -0.1633007 -0.17667805 0.04152824 -0.12002981
0001a0 7d e3 32 be 0d dc 46 be 2b 79 86 be 34 d4 1b 3d
       -0.17469592 -0.1941988 -0.2626432 0.03804417
0001b0 7c 16 64 bc 38 9a 3f bd 8b ed 22 3e ff 4b 1d be
       -0.013921376 -0.046777934 0.15910928 -0.15361021
0001c0 ec 7b f5 bd 4a f9 37 be 7f 73 63 3d 6a 78 bf 3e
       -0.11986527 -0.1796619 0.055530068 0.37396556
0001d0 58 6e 02 3e 4a d8 6d be d2 ba ad be f3 d7 de bd
       0.12737405 -0.23227039 -0.33931595 -0.10881033
0001e0 b7 53 ba 3e 7f b5 20 3e 08 75 45 3d 6f cc a1 bd
       0.36391994 0.15694235 0.048207313 -0.07900321
0001f0 e3 bc 9e be 0d 56 b9 bd c6 c1 33 bd 00 4b b1 3d
       -0.31003484 -0.09049616 -0.04388597 0.08656883
000200 8e 98 bf 3d 26 e4 75 3d 80 92 79 bd b4 a0 dc bd
       0.09355269 0.060032032 -0.06093073 -0.10772839
000210 16 7b cc 3d b4 e1 79 3e b6 3a 1c 3e 1b e5 6f 3e
       0.09984414 0.24402505 0.15256771 0.2342724
000220 c2 d0 1e be ce 02 68 be 7a a5 ee bc 2f f9 4b 3e
       -0.15509322 -0.2265732 -0.02913164 0.19919275
000230 54 b6 29 3e 37 94 88 3c 93 b0 6d bd 69 19 08 be
       0.16573459 0.016672237 -0.058029722 -0.13290943
000240 c6 83 e6 bd 9f 76 a9 3e 43 a9 ae 3e 2e 6c 86 bd
       -0.112556025 0.33098313 0.3411351 -0.065636024
000250 a7 c8 b6 bd 86 6a ff bd 48 79 2a be c0 ee 30 be
       -0.0892499 -0.124714896 -0.16647828 -0.17278576
000260 1d 84 a1 bd 5e df 6b bc 7b 51 a6 3c 66 dd b5 3c
       -0.07886527 -0.014396517 0.020302525 0.022200298
000270 e2 97 84 bd c4 e9 fe bc f0 6d 24 3d 37 be 68 bb
       -0.06474282 -0.031117328 0.040143907 -0.0035513768
000280 71 5d 62 3d c0 2b 69 bc 28 96 98 3d 09 50 2b bd
       0.055264894 -0.014231622 0.07450515 -0.041824374
000290 79 25 7b 3d bc 3a 08 b7 58 4e 17 3d de 37 38 bc
       0.061315034 -8.119907e-06 0.03693995 -0.0112437885
0002a0 4c de 9b 3c c0 33 40 3c b7 09 42 3d 25 14 bf 3d
       0.019026898 0.011731088 0.047372546 0.09330014
0002b0 4e b3 5d 3d d8 68 1c 3c c9 95 e1 bd 00 4a ea bd
       0.054126076 0.009546481 -0.110148974 -0.11439896
0002c0 66 74 00 be 11 ef 61 bd 99 d9 ad bd 7e 6a ac bd
       -0.12544402 -0.055159632 -0.08488769 -0.08418749
0002d0 d4 e4 11 be 29 06 f8 3c 55 a4 b2 bc 7e 4c 8f bd
       -0.14247447 0.030276375 -0.021806875 -0.069970116
0002e0 13 6a 4a 3c 12 77 c9 bc 82 1a da 3d 28 b1 c0 3d
       0.012354392 -0.02459291 0.10649587 0.0940879
0002f0 89 ec 8d bb 5b c1 32 be 3e 5d a9 bc db 2f 5e 3d
       -0.0043311757 -0.17456572 -0.020674344 0.054244857
000300 6f 8d 5d 3c ee 5c 8e bd ff b0 44 be 46 5c 94 bd
       0.01352249 -0.06951319 -0.19208144 -0.07244162
000310 6c 69 5a bd c7 73 19 be 78 b5 14 be f2 18 74 be
       -0.053323194 -0.14985572 -0.1452235 -0.23837641
000320 ae 9e d9 3d 64 99 0b 3e f3 bf 06 bd 4e fb e8 3c
       0.10625969 0.13632733 -0.0328979 0.028440144
000330 85 e8 80 bc d3 0e ff 3d de 25 26 3e 11 92 30 3e
       -0.015735874 0.12453999 0.16225383 0.1724322
000340 73 2a 41 3e a9 44 4b 3d b0 b3 05 3e 3c 45 83 3e
       0.1886385 0.049626026 0.13056827 0.2563876
000350 24 7a 70 3e ce 54 8d 3e 18 3c 81 3d f7 df 22 3e
       0.23484093 0.27603763 0.0631029 0.15905748
000360 ac f5 98 3e 6e c4 a1 3e 5c 5e 0e 3e 78 82 8c 3c
       0.29874933 0.31595176 0.13903183 0.017152056
000370 f2 3a 45 3e e7 88 1b 3e 21 ba 3b 3e 8d 9d 71 3d
       0.19260767 0.15188943 0.18332721 0.058988143
000380 04 81 ba 3d 5f 14 0f bd 31 3b 63 be ff 77 ab bd
       0.09106639 -0.034931537 -0.22190548 -0.08372497
000390 b2 91 a9 bd 1e 37 41 be 53 1a 13 3e 26 ff 15 3e
       -0.08279742 -0.18868682 0.1436551 0.14648113
0003a0 9f 9b 9e 3d 20 7c d2 bd ba d5 af bc 37 76 a8 be
       0.07744526 -0.10277581 -0.021464217 -0.3290269
0003b0 ce eb 5e be 27 fc aa be 8f 53 9e be 30 66 40 be
       -0.2176964 -0.33395502 -0.30923125 -0.18788981
0003c0 f8 82 c7 be 87 b2 ff be 10 07 bb be 9b 2e bd be
       -0.3896711 -0.49940893 -0.36528826 -0.3694962
0003d0 ad 10 d4 be 92 a4 8f bd 35 8a f9 3d 6c 26 48 3d
       -0.41418973 -0.07013811 0.12184564 0.048864767
0003e0 ee f1 f3 3d 1c 36 f9 3d d3 b5 9b 3d a9 39 de bd
       0.11911379 0.12168524 0.076030396 -0.108508416
0003f0 0c 9b 08 3e 57 f6 ee 3c 06 9d 75 3a 1c c4 c8 3e
       0.13340396 0.029170198 0.00093694066 0.3921212

conv1.bias f4 [6]
000000 52 20 ec bd 4a a0 c5 be 12 73 22 3c d5 ca 65 3d
       -0.11529602 -0.38598853 0.00991513 0.05610164
000010 94 10 8f be 43 11 18 be
       -0.27942336 -0.14850335

conv2.weight f4 [16, 6, 5, 5]
000000 d8 da 8e 3d 7e 0b a5 3d 38 a9 40 3d 9e 5e 28 be
       0.06975335 0.080588326 0.04703638 -0.16442344
000010 c8 b2 c6 bd 85 01 5d bd 37 98 b2 bd 16 e9 23 3d
       -0.097020686 -0.053956527 -0.08720439 0.04001721
000020 88 be 10 3e ee f1 26 3d 2f de 3c bc b6 e2 11 be
       0.14135182 0.040758066 -0.011527582 -0.1424664
000030 bb 0e 74 bd 87 64 09 3d 8b 81 1b 3e 62 cf 60 3d
       -0.05958436 0.033543136 0.15186135 0.054885276
000040 26 f0 08 bd 45 9f a1 bd 74 df c5 bd 2e 5a e8 3d
       -0.03343215 -0.078917064 -0.09661761 0.113453254
000050 fa 9a 05 bb 79 d6 59 bc 72 75 a1 bd ca 85 e8 bd
       -0.0020386563 -0.013295763 -0.07883729 -0.11353643
000060 ae a3 4f bd a0 af a1 3e e5 a4 f9 bd 8b 22 87 be
       -0.050693206 0.31579304 -0.12189654 -0.26393542
000070 80 53 13 3d c3 31 ff 3d 55 64 85 3e 78 74 9d 3e
       0.035968304 0.12460663 0.2605311 0.3075292
000080 e1 b9 e1 bb cb 73 54 be 49 a6 34 bd 70 dd c0 bd
       -0.0068886136 -0.20747297 -0.044103894 -0.09417236
000090 55 8c 48 3e ab 93 b2 3e b0 cc 0c 3c ce 31 1d be
       0.19584782 0.34878287 0.008593723 -0.1535103
0000a0 28 b4 b6 3d 59 9d 86 3d 35 df 5a 3e 36 4e 96 3e
       0.08921081 0.065729804 0.21374209 0.29356545
0000b0 b9 4f 30 3d 77 4b ff bd 1f 81 51 3d f2 bb 23 3d
       0.04304478 -0.12465566 0.05114853 0.03997416
0000c0 87 e3 d6 3d a7 ed a0 3d 72 f0 43 3d 88 ca 5a 3d
       0.10492616 0.078578286 0.04783673 0.053415805
0000d0 80 17 87 bc 59 02 21 bc fa 2c a9 bc 9a f0 81 3d
       -0.016490698 -0.00982722 -0.02065133 0.06344719
0000e0 89 ba 10 be 25 8d 05 be ab 13 f4 bd 92 78 e3 bc
       -0.14133658 -0.13042124 -0.11917814 -0.027767453
0000f0 10 7f da 3d b1 6b f3 bd 8c e2 39 be 1b 79 62 be
       0.106687665 -0.11885775 -0.18152827 -0.2211651
000100 25 00 a8 bd 29 b2 f9 3d 0f 12 b9 3c 24 29 21 be
       -0.082031526 0.121921845 0.022591619 -0.1573835
000110 b5 d5 12 be cb b4 30 bd 2c 53 1e 3e 4b 25 7f 3d
       -0.14339335 -0.043141168 0.15461415 0.062291425
000120 dd 6f 75 3d 86 f9 62 bd 0d f8 01 bc e0 03 ea 3b
       0.059921134 -0.055413745 -0.007932675 0.007141575
000130 e5 bc 6e 3d dc b8 fa bb 15 e8 02 bd 18 60 bc bc
       0.058285613 -0.0076514315 -0.031959612 -0.02299504
000140 6a 86 00 be 99 0b f6 bc 46 38 82 3d 61 69 83 bd
       -0.12551275 -0.030034827 0.063583896 -0.06416584
000150 c8 dc b7 bd 34 8f e5 3c 18 9a 15 be e1 36 88 bc
       -0.089776576 0.028022386 -0.14609563 -0.01662773
000160 9a cc 92 3d 44 b5 a8 3d e2 97 07 3e 58 a6 19 bc
       0.07167931 0.08237699 0.13241532 -0.009378038
000170 4e f3 c4 bd e9 09 3a bd 47 46 bd 3d 31 a0 34 3e
       -0.09616719 -0.045419607 0.0924192 0.17639233
000180 d5 d3 93 3d a3 b6 08 bd db 41 45 3c ea 29 22 bd
       0.07218138 -0.0333773 0.012039627 -0.039590754
000190 01 fb db 3c 9a 66 f1 3c 20 8f f1 bc 0d a0 e9 bc
       0.026853086 0.02946787 -0.029487193 -0.028518701
0001a0 83 1c 37 3d a6 26 d6 3d 2d f4 e4 bc 08 13 bc bd
       0.044704925 0.1045659 -0.027948463 -0.091833174
0001b0 b2 70 26 be 4e 73 e3 3c 56 24 09 3d 77 13 9f 3c
       -0.16253927 0.027764942 0.03348192 0.019418461
0001c0 a8 af dc bd 6c 3f 29 be 59 41 46 bd 8f aa da bc
       -0.10775691 -0.165281 -0.048402164 -0.026692657
0001d0 4e 6d 03 3d 8a 2d 4d 3d ae 94 86 bd 9b 62 5f bc
       0.032086663 0.050092258 -0.06571327 -0.013634349
0001e0 f2 f5 ca bd 5c e7 30 bd 2c 9f 30 bd 1e 33 b0 bd
       -0.099101916 -0.04318939 -0.043120548 -0.086035
0001f0 cd 6d 92 3d 33 6c b3 bc 04 db 62 bb ef da 2d 3e
       0.07149849 -0.02190218 -0.0034615407 0.16978048
000200 76 46 50 3e 4a 42 c9 3d c0 4d 8d bd 2e c0 37 be
       0.20339379 0.09827097 -0.06899595 -0.17944404
000210 cd 24 a4 bc 8d 7d ed 3d d2 52 01 3d 37 13 67 bd
       -0.02003708 0.115962125 0.031573124 -0.05641481
000220 a0 3a 1e 3c fc 66 26 be 46 69 64 3d 2c a8 17 3e
       0.009657532 -0.16250223 0.05576446 0.14810246
000230 07 f6 53 3b 75 4f 0b 3d f9 4a f1 bd 8b 19 db 3b
       0.0032342689 0.034011323 -0.11781878 0.0066863946
000240 40 7f a8 3c 5d 26 ee bd 22 1a c9 bc 91 29 19 bd
       0.02056849 -0.11628411 -0.024548594 -0.037393156
000250 20 ee 9a bd 06 c2 10 be c6 2e 3e be 36 e6 7b bd
       -0.0756495 -0.14136514 -0.1857253 -0.061498843
000260 fc b0 bb 3d a8 1c 1f 3e 42 a7 80 3e 85 a8 24 be
       0.091646165 0.15538275 0.25127608 -0.1607991
000270 39 62 09 be 7d 43 16 3e 3d b6 0e bb ef f9 a5 3d
       -0.13416375 0.14674182 -0.0021776103 0.08104312
000280 b2 ef 27 be 65 0f 6a bd 6c b7 2c 3e c8 32 b5 3d
       -0.1640003 -0.057143588 0.16866845 0.088475764
000290 97 e2 92 3d 2b c2 5a bd 2a 6e df bd 03 56 27 3e
       0.07172125 -0.05340783 -0.10909684 0.16341405
0002a0 fe d2 b4 bc 74 32 90 bc 46 88 8a bd a2 f9 48 be
       -0.022073265 -0.017602183 -0.06764273 -0.19626477
0002b0 c2 fd d0 3d f5 92 fd 3b 81 65 e1 3c 19 e6 41 be
       0.102046505 0.007738466 0.027514221 -0.18935432
0002c0 5b 45 ac bd 04 9e d3 bd 68 15 57 bc 8b 11 86 bd
       -0.08411666 -0.103328735 -0.013127662 -0.06546315
0002d0 71 89 1a be b1 f8 b9 bc 49 9c 8b bc 99 38 11 3b
       -0.15091492 -0.022701593 -0.017042296 0.002215898
0002e0 40 84 a5 bd c3 90 18 be 29 92 f0 bb 75 1e 97 bd
       -0.08081865 -0.14898972 -0.0073416424 -0.07378856
0002f0 b0 01 79 3d 1e 3a 17 bd 5c 39 08 be 36 cb 82 bd
       0.060792625 -0.03692066 -0.13303131 -0.06386416
000300 cb 04 0d 3d 50 62 84 3c 41 42 47 3c 5e 3a 51 bd
       0.0344284 0.01616016 0.012161792 -0.051081054
000310 38 1c ab bd e8 0c 2a bd 99 f2 88 bd 8a 96 c3 bc
       -0.08354992 -0.041516215 -0.06686897 -0.023875494
000320 d1 d1 a7 3b ad 16 22 3d 28 1a 84 bc a3 a9 9f 3d
       0.0051214476 0.039572407 -0.016125754 0.077960275
000330 ac b9 ff 3d 0f 63 bd bd 99 0c 66 bd 3b 45 99 3d
       0.12486586 -0.092474096 -0.056164358 0.07483908
000340 0c bf 87 3c 24 59 f5 bc 7e d3 06 3d be ff d6 bd
       0.01657059 -0.029949732 0.03291654 -0.10497998
000350 e2 dd eb 3c 03 ad af bd 04 c1 0a be c4 46 5a bd
       0.028792325 -0.08577921 -0.13550192 -0.053290144
000360 62 12 3e bd 93 04 da bb d3 32 cf bc 54 99 24 be
       -0.04640425 -0.0066533773 -0.02529279 -0.16074115
000370 52 13 fc 3c f0 ec ee 3b b7 d1 32 bc 16 86 8e bd
       0.030770931 0.0072914287 -0.010914258 -0.069591686
000380 22 15 22 be 7e a6 64 3e 3d 06 9e 3d ab 80 4d 3d
       -0.15828374 0.22329137 0.077160336 0.050171535
000390 a7 a3 e2 3d a8 92 80 3d 30 7a 52 3e b5 9d d0 3d
       0.110663705 0.062779725 0.20554423 0.1018633
0003a0 d0 86 98 bd 0e de 2f 3d dd 21 87 3c d7 eb 06 3e
       -0.074475884 0.042936377 0.01649564 0.13175903
0003b0 4a f5 13 3d 9f e5 89 bd 6c 48 28 be e1 f0 35 be
       0.036122598 -0.0673325 -0.16433877 -0.1776767
0003c0 e3 7a 41 3e 33 63 6c 3d 91 10 41 3c 3d 0b f2 bd
       0.18894534 0.05771179 0.011783735 -0.1181855
0003d0 aa a1 11 be 2f 25 b2 3d 16 dc bc 3d 29 43 d1 bd
       -0.14221826 0.086984985 0.092216656 -0.10217888
0003e0 2a 73 07 bd e7 df c3 bd 94 97 3a be 2e b5 69 bd
       -0.033068813 -0.0956419 -0.18221885 -0.057057552
0003f0 26 40 4d 3d bb af 55 3e d7 b7 dc bd 01 99 52 be
       0.050110005 0.20867817 -0.10777252 -0.20566179

conv2.bias f4 [16]
000000 ac 2a 22 be 8c ed 54 be 55 55 a9 be 39 2a ae be
       -0.1583659 -0.20793742 -0.33072916 -0.34016588
000010 f5 97 e5 3e ee 32 6f bf 69 10 51 3f de e4 a6 bd
       0.44842497 -0.9343709 0.81665665 -0.08149122
000020 ee b9 48 3e 71 2b 00 3f 40 f7 93 bd 59 25 b4 3a
       0.19602177 0.50066286 -0.072248936 0.0013744041
000030 98 39 d8 bc 41 86 97 bc 27 1f 4a 3f 1e 7f 25 3d
       -0.02639465 -0.018496634 0.78953785 0.04040443

fc1.weight f4 [120, 400]
000000 0f 86 2b bc 37 e9 93 bd d2 d9 43 bd 48 df 01 3d
       -0.010468974 -0.072222166 -0.04781515 0.03170708
000010 d3 51 25 bd eb 1a 36 bd 3c 6d 76 bd f6 e3 b2 bd
       -0.040361237 -0.044459265 -0.060162768 -0.08734886
000020 2b b0 a8 bd d5 04 c3 bc 09 bc cd 3d 08 58 d4 3b
       -0.082367264 -0.023806015 0.100456305 0.0064802207
000030 6f 52 57 bc 55 cc 4c bd 7e 85 0a bd 2c 94 23 3d
       -0.013142212 -0.049999554 -0.033818714 0.03993623
000040 29 b7 8c bb 20 52 47 3d 89 84 4f bd 4b 09 5a bd
       -0.0042942953 0.048662305 -0.050663505 -0.05323152
000050 38 e1 8d 3d 60 02 7d 3d a2 7a 47 3d d2 74 7b 3d
       0.06927723 0.061769843 0.048700936 0.061390705
000060 50 28 9c bc 38 f6 92 bd a0 3c 06 bd 4d c1 a2 3a
       -0.019062191 -0.07175869 -0.03277266 0.0012417227
000070 ff 05 3f bd bd 6d 41 bd a0 68 7d bd e5 ef 37 bd
       -0.046636578 -0.047223795 -0.061867356 -0.044906516
000080 32 e6 19 bd 2e 16 ef bc 30 ca c3 3b c8 75 72 bd
       -0.037573047 -0.02918538 0.0059750304 -0.059194356
000090 4d 28 e9 bc 33 c1 e9 ba 59 d4 3f bd 82 f5 bb 3a
       -0.0284616 -0.0017834067 -0.04683337 0.0014340135
0000a0 0c 57 29 bd 53 5a 56 b9 3c 33 16 3d 61 61 75 3d
       -0.04134278 -0.00020442279 0.036669955 0.05990732
0000b0 de 90 a7 bc 2d bf 8a bc 42 16 62 bb 5d 0b 4d 3d
       -0.02045482 -0.016936863 -0.003449813 0.050059665
0000c0 23 d9 42 bd 44 ff 1a bd b4 ad 15 bd 96 06 6f bc
       -0.04757036 -0.037841097 -0.03654261 -0.014588973
0000d0 0d 1b c5 bd 8a 2b 90 bd 12 f4 0b bb 6f b9 f9 b6
       -0.096243 -0.070395544 -0.0021355194 -7.4423656e-06
0000e0 43 0c e0 bb c1 e8 04 bd 1f ad 94 bd f4 45 55 3c
       -0.006837399 -0.032448534 -0.07259583 0.013017166
0000f0 8c 3f 59 bc c7 fe 55 bd 1f 47 46 bc 19 4d 6e bd
       -0.01325978 -0.052244928 -0.0121019175 -0.058178995
000100 26 8d 1f bc bf e3 86 bb 58 43 ee bc 5f c5 53 3d
       -0.009738242 -0.004116505 -0.029084846 0.0517019
000110 b7 1e 9c 3d 7d 9c 33 3d b7 f4 38 bc f9 cc 09 bd
       0.07623046 0.04385041 -0.011288813 -0.033642743
000120 21 49 50 3d 7b 40 b4 bc b5 ec 6c bc a0 f6 b1 bd
       0.05085099 -0.022003403 -0.014460732 -0.08689618
000130 3b 6d a1 bd cf e1 13 bd 7d 85 80 bd 34 00 4f bd
       -0.07882162 -0.03610402 -0.06275461 -0.050537303
000140 23 2c d1 bc 55 18 00 be 95 34 97 bd b0 e5 5e bd
       -0.025533741 -0.12509282 -0.07383076 -0.054418266
000150 62 58 0c be 68 be 3f 3d 3e 5d 92 bd 46 57 65 bd
       -0.1370559 0.046812445 -0.07146691 -0.055991434
000160 3a 7b ad bd 69 94 d7 bd a5 d0 1b 3d c7 e9 8b bc
       -0.08470769 -0.10526354 0.038040776 -0.017079247
000170 c6 b6 06 3c 4c 40 8d 3b 3f 7c b5 bd f7 bd d5 3c
       0.0082222875 0.0043106433 -0.08861589 0.026091559
000180 6c c2 0e bd fc ba c0 3d 95 7b 83 bc 03 d4 0b bb
       -0.034853384 0.094106644 -0.01605014 -0.0021336086
000190 15 9d bd 3c 79 9e e8 bc b0 06 81 3d a7 2f 97 bc
       0.023146192 -0.028395878 0.06300104 -0.01845534
0001a0 a5 39 65 3c 65 06 20 3c ec 4e ca 3b d8 52 9d 3d
       0.013990794 0.00976715 0.006173959 0.07681817
0001b0 55 2d 2f 3b de d0 aa bc ff 07 86 bc 89 fe 2b 3d
       0.00267299 -0.020851549 -0.016361235 0.04199079
0001c0 80 05 4f 3d 6b f4 89 3d 9b 00 95 bc 08 90 56 bd
       0.050542355 0.06736072 -0.018188765 -0.052383453
0001d0 b6 6d cf 3c f4 d1 c7 3c b7 ae bf 3c c9 7a f4 bc
       0.025320869 0.024392106 0.02339874 -0.029843705
0001e0 66 cc 10 bc 84 5b a5 3c 90 4c 53 bd dc 78 b4 3c
       -0.008837795 0.02018524 -0.051586688 0.022030286
0001f0 e8 81 58 b9 42 ac 42 bd a7 a9 0c bd cd 45 07 bd
       -0.00020647759 -0.04752756 -0.03434148 -0.03302555
000200 24 de 27 3c 55 61 4c bd ae e3 b2 3c 1a a8 91 bd
       0.010245834 -0.04989751 0.021837082 -0.07112141
000210 45 6d 93 3c 51 3d 1b bd ae 80 ff 3d dc 48 22 3d
       0.01799644 -0.037900273 0.124757156 0.039620265
000220 b3 6d 47 3d 2f 24 2a bd 15 42 51 3d 92 d1 36 3e
       0.0486886 -0.041538414 0.05108841 0.17853382
000230 3d 60 18 bd 1c eb 33 3d df ac b6 3d 74 61 b9 3d
       -0.037201155 0.04392539 0.08919691 0.09051791
000240 05 d0 67 3d 11 33 17 bd 37 fd a4 3c fa bf 5c bd
       0.056594867 -0.036913935 0.020140273 -0.05389402
000250 22 c8 81 bd f9 02 27 bd 35 6b 20 bc 35 7f cb bc
       -0.063370004 -0.04077432 -0.009791185 -0.02484093
000260 e1 61 11 bc 15 61 d0 bd 89 d8 74 bd 2a 60 94 3d
       -0.008873434 -0.10174767 -0.059776817 0.07244904
000270 56 4e 0b bd eb fc 5f bd 22 f8 e1 bd f7 09 b9 bc
       -0.034010254 -0.05468456 -0.11033656 -0.02258776
000280 07 da e7 3b cf 50 c0 bc c4 05 ce bc e9 c2 a7 bd
       0.0070755514 -0.023476033 -0.025149234 -0.08191473
000290 77 e2 21 bc 03 73 66 3d 34 ee 39 3c 85 89 50 bc
       -0.009880654 0.056262027 0.011348296 -0.0127281
0002a0 6c f2 94 3d 25 e8 08 bd fe 49 72 bd 64 88 50 3d
       0.07272801 -0.033424515 -0.059152596 0.050911322
0002b0 b2 98 98 3d d2 5b 5c 3d a2 fd 6c 3d 51 73 60 bc
       0.07450999 0.053798504 0.05785907 -0.013699369
0002c0 97 ad 07 bd bf 46 d9 bc 2e 30 b9 bc cf d9 8a ba
       -0.033124533 -0.026522992 -0.022605982 -0.0010593476
0002d0 db 16 0d bc d9 1d 33 3d ac c2 90 3c f1 02 8c 3c
       -0.008611406 0.043729637 0.017670952 0.017091246
0002e0 80 07 62 3d 5f 3e 9b 3c bc 38 34 3c c5 d7 2a 3d
       0.055182934 0.01895064 0.010999855 0.04170968
0002f0 fd b9 95 3c eb eb 98 3d 57 8d ce 3d 44 bf 9d 3d
       0.018277163 0.07466873 0.10085552 0.07702497
000300 82 9d 85 bc 8c 1a 63 bd ec c8 f8 bb 54 ec 83 bc
       -0.016310457 -0.05544524 -0.007592311 -0.016103901
000310 08 9f d7 3c 62 c0 fa 3b 81 73 0a 3c 87 08 09 bb
       0.02632095 0.0076523283 0.00845039 -0.0020909624
000320 4e 6c 59 3d 2f 1d 8e bd c0 8a bb bd b9 69 82 bc
       0.053081803 -0.0693916 -0.09157324 -0.015919553
000330 93 82 33 bc f4 fe 6f 3d 60 aa 58 bc 67 c3 05 bb
       -0.010956424 0.05859275 -0.013224214 -0.0020410658
000340 36 68 03 3d c3 f8 10 3d a1 9f 1d 3d 17 04 53 3d
       0.032081805 0.035393488 0.038482312 0.051517572
000350 75 5b 2b 3d 7d 75 00 bd 68 a3 59 3d ac f9 5a bc
       0.041835267 -0.031362046 0.053134352 -0.0133651905
000360 8f 9c 0a bd d8 81 77 bb cc da bf 3c 71 c5 79 bd
       -0.033840712 -0.0037766602 0.02341976 -0.06097931
000370 0e 03 47 bd 48 b9 77 bd 76 67 56 bc 7d 59 a8 bd
       -0.048586898 -0.060479432 -0.01308619 -0.082201935
000380 ab bd 80 bd cc 91 e0 bc 28 e0 8c 3c 5c e6 24 bb
       -0.06286176 -0.027413271 0.01719673 -0.002516172
000390 4d 27 38 3c ea ac 37 bd 52 40 29 bd 60 06 76 3d
       0.011239839 -0.044842638 -0.041321106 0.060064673
0003a0 81 0e 85 3d ea 4c 26 3d 61 ae a1 bb e4 c2 28 bb
       0.06496907 0.040600695 -0.0049341177 -0.002575093
0003b0 7b 63 a7 3d cb 2b c2 3d 88 4b 8e 3d 7c dc 8e bc
       0.08173271 0.09481009 0.06948 -0.01743912
0003c0 d0 a1 7f bd b6 ea 89 3d 1a df c9 3d f6 08 07 3d
       -0.062410176 0.06734221 0.09857006 0.03296753
0003d0 62 49 80 3c ee 51 bd 3c 40 b2 15 3d 5b 0a 9c 3d
       0.015659992 0.023110356 0.036546946 0.07619163
0003e0 b5 46 8e 3c 73 47 a1 3c 29 60 08 3d 6c 5e d3 bc
       0.0173677 0.01968739 0.03329483 -0.02580186
0003f0 ae 1f 69 bc a4 ad fe bc 18 01 79 3c df c0 07 3c
       -0.014228744 -0.031088658 0.015198015 0.00828573

fc1.bias f4 [120]
000000 7c c2 5b 3d 6f 2f 3c 3c 4e 1a 3d 3e 92 43 14 3c
       0.05365227 0.011485918 0.18467066 0.009049313
000010 92 5c c1 3d 2d 48 20 3e 7e 38 a9 3c 3c 2b bc 3d
       0.094414845 0.15652533 0.02065682 0.09187934
000020 cc 22 f5 bc 0b 62 04 bd a3 e0 fd 3d 0b ec 2b 3e
       -0.029923819 -0.032320064 0.12396362 0.16789262
000030 74 74 a4 3c c1 d3 3b bd 76 3a 7b bc d7 fd 24 bd
       0.02007506 -0.04585624 -0.015333762 -0.040281143
000040 fa a0 3c 3e e3 2c c8 3d d5 6c c7 bc 60 e6 42 3d
       0.18420783 0.097741865 -0.024343887 0.047582984
000050 7d 93 d9 3c d3 6e 0f 3d f7 cd 04 3e 43 14 93 3d
       0.026559586 0.0350178 0.12969194 0.07181599
000060 15 58 14 be a9 48 5b 3d b4 99 00 3e c5 8d f8 bd
       -0.14486726 0.05353609 0.12558633 -0.121364154
000070 26 78 60 bc 2e 1f a2 bd 27 28 ff 3b 99 01 0c be
       -0.013700521 -0.07916103 0.007786769 -0.13672484
000080 75 ac e9 bc f5 44 f6 3b 8a f7 f4 3b fe 60 32 3e
       -0.028524617 0.0075155445 0.007475798 0.17419812
000090 7c 1d 0f bc b4 d1 d1 3d 09 73 c0 3d f6 9e 8f bc
       -0.008735057 0.10245076 0.09396941 -0.017531853
0000a0 3e 81 f3 bd 5c dd e3 3c be 1e 55 3c 36 04 40 3d
       -0.11889885 0.027815513 0.013007818 0.046879016
0000b0 f1 e8 aa bd 30 05 b3 bd 9b b7 d3 ba 41 6f a1 3d
       -0.08345211 -0.08741224 -0.0016152741 0.07882548
0000c0 ff 04 b8 3d 93 de 27 be 1a b2 a6 bc d5 5e 1a bd
       0.08985328 -0.16393499 -0.020348597 -0.037688095
0000d0 dd bd 6c 3d c2 95 d1 bd 86 30 12 be 0d 2d e5 bc
       0.057798255 -0.10233642 -0.14276323 -0.027975583
0000e0 9b c6 0e bd 44 90 39 bd ec 5d a0 bb 88 3f 23 3d
       -0.034857374 -0.045303598 -0.004894009 0.03985551
0000f0 df 26 9c bb 04 d5 58 bd 5c 21 04 3e ff c7 1a 3e
       -0.004765376 -0.052937523 0.1290335 0.15115355
000100 87 b2 63 bd 88 75 08 3e 9b c0 15 3e e6 1a e4 3d
       -0.05559018 0.13326085 0.14624254 0.11137943
000110 55 b1 ec 3d dd 81 3f 3d 78 9b 25 be 40 9f f7 3c
       0.11557261 0.046754707 -0.16172588 0.030227304
000120 55 dc 43 3d 1f 47 07 bd 94 35 b9 3d fd 79 d0 3d
       0.047817547 -0.03302681 0.09043422 0.101795174
000130 ae cd f9 3d 11 66 57 bc 31 41 03 3d ce 6c ef bb
       0.121974334 -0.013146893 0.032044593 -0.0073066717
000140 71 8e e4 bd 25 ab 32 bb 8c d9 17 3d 80 20 08 3d
       -0.11159981 -0.0027262655 0.037072703 0.03323412
000150 d4 a6 da bc 25 ff 71 bd 12 28 f0 3c 32 13 c1 3d
       -0.026690878 -0.059081215 0.029315982 0.09427489
000160 5b b3 97 3c 1b b2 84 bb 4e 7c a5 3d f3 c9 6a bd
       0.01851814 -0.004049552 0.0808035 -0.0573215
000170 ab a5 6e 3d 18 80 61 3d 09 ed 3c 3d 62 ea 55 3c
       0.058263462 0.0550538 0.04612449 0.0130563695
000180 0f f2 4f 3e a3 3a 86 3c 17 39 24 3e 77 d9 43 bd
       0.20307182 0.016385382 0.16037403 -0.047814813
000190 32 71 d7 bd 95 02 1c 3e 0f 97 02 be 69 f0 ea 3d
       -0.10519637 0.1523536 -0.12752937 0.11471636
0001a0 c3 d5 e7 3c fa 0b 1b 3e c7 6e 9d 3d 43 9c c3 bd
       0.028300172 0.15141287 0.07687145 -0.09551289
0001b0 db 2c 11 3d 75 98 20 bd b6 17 08 bc 39 60 39 bd
       0.035443168 -0.039207894 -0.008306434 -0.04525778
0001c0 08 a8 aa 3d 00 4f 5f bd 0e 91 a4 3d 39 d6 0f 3e
       0.08332831 -0.0545187 0.080354795 0.14046563
0001d0 ac 78 9a bb 6c 7f ae 3c c8 ab f3 bc 88 0f 2b 3d
       -0.0047140922 0.021300994 -0.029744998 0.04176286

fc2.weight f4 [84, 120]
000000 c6 df f1 bd cc 4d 84 bd 31 33 eb bd 7c 0c 81 bd
       -0.118102595 -0.06460151 -0.11484373 -0.06301209
000010 c0 ab 69 bd 65 a9 ae bd 80 4f 9a bc 87 5c d5 bc
       -0.05704856 -0.08528403 -0.018836737 -0.026045097
000020 bd 80 3d 3d 6e 73 93 bd 75 93 18 bb 67 92 09 3d
       0.046265353 -0.07199751 -0.002328125 0.033586886
000030 8b 16 64 bc 24 20 88 bd 0d 61 86 3d d8 3c e1 bc
       -0.01392139 -0.06646755 0.0656148 -0.027494833
000040 a1 ff a8 3d 57 72 b4 3d 9d 3f 24 3d c4 e1 a0 3d
       0.08251882 0.08810871 0.04009973 0.078555614
000050 60 1c b6 3d ad ea a2 3b 46 9c ed 3c 39 d3 f6 bc
       0.08892131 0.004971823 0.029005181 -0.030130016
000060 35 94 2c bd 6f 07 04 3d 42 d7 83 3d 8b 05 b1 3d
       -0.04213353 0.03223365 0.064375415 0.08643635
000070 ed 9c 37 bd 1f cc 29 3d 14 8a ae bd 88 ac f1 bd
       -0.04482739 0.04145443 -0.0852243 -0.11800486
000080 ce fa 52 bd eb f1 b1 3d 80 bc b3 bd 46 48 1d bd
       -0.051508717 0.0868872 -0.08776188 -0.038399003
000090 66 e1 05 bd c0 36 44 bd 21 44 d8 bc da 15 82 3d
       -0.03268566 -0.047903776 -0.026399674 0.06351824
0000a0 ff 35 f9 bc 47 fa b6 bd f6 c1 8b 3d 5f 3a c4 3d
       -0.030421255 -0.08934455 0.068241045 0.09581446
0000b0 4c aa 8f bd 62 2d 97 bd d8 25 c8 bc 6f d4 ac 3c
       -0.070149034 -0.07381703 -0.024432108 0.02109739
0000c0 d6 77 8a bc 9e 37 81 bd 33 8f 8f 3c bd 4a 4e bd
       -0.016902845 -0.06309436 0.017524337 -0.050364245
0000d0 77 93 22 bd 15 22 37 bd 79 e9 8d bc f4 37 2a b7
       -0.039691415 -0.044710238 -0.017323243 -1.0145817e-05
0000e0 ba 5c 8e 3d f9 c3 55 3d 3e 76 0e 3d 66 7a 65 bd
       0.0695128 0.052188847 0.034780733 -0.05602493
0000f0 87 27 5a 3c 08 54 b4 3d 5d aa 58 bd d4 a8 b2 3c
       0.013315088 0.0880509 -0.052896846 0.02180902
000100 b8 07 f5 bd 2a cd 43 bd b3 04 01 3d 24 5f c3 3d
       -0.11964363 -0.04780308 0.031498622 0.09539631
000110 bd 72 80 bd 05 15 34 3d 76 2b 27 be a5 72 c2 3c
       -0.062718846 0.04396536 -0.16325173 0.023736307
000120 62 1e d2 3c 01 58 0b be 7b 39 7c 3c 6e 92 c6 bd
       0.025649253 -0.1360779 0.015394564 -0.09695898
000130 de 9d 09 3b ed 18 cf bd 10 28 83 bc e0 36 c6 3c
       0.0020998637 -0.10112176 -0.016010314 0.024196088
000140 34 d6 13 be 8f c8 15 bd c0 43 4a 3e a6 08 53 3c
       -0.14437181 -0.03656822 0.19752407 0.01288048
000150 f5 03 1c 3e c0 d3 0a 3d 22 eb d4 b9 c6 78 02 bd
       0.15235884 0.033893347 -0.0004061098 -0.03185346
000160 6e 75 79 3c cb 6d 75 bd f8 73 1d 3d a4 61 05 bb
       0.015225751 -0.05991916 0.038440675 -0.0020352388
000170 25 5e 1e bd b0 7b 4f bd 31 cf 35 bd 1e fb b0 3d
       -0.038664002 -0.050655067 -0.044387046 0.08641647
000180 55 f6 04 bc 30 e4 9b 3d 3b 97 0a 3d 90 86 a1 3c
       -0.008115371 0.07611883 0.03383563 0.019717485
000190 7c 10 f3 3c 99 bf 4c bd 51 e8 81 3d 2f 8a 75 bd
       0.029670946 -0.04998741 0.06343139 -0.059946235
0001a0 2d c1 91 bd 2b b4 5b bc 46 bd 8e bd 72 75 00 3c
       -0.071169235 -0.013409655 -0.06969695 0.007840501
0001b0 a2 9b 8e bd f5 88 13 bd 37 c4 8b 3d 99 61 c0 bc
       -0.06963278 -0.036019284 0.068245344 -0.023484038
0001c0 94 96 8c bd 7b 57 a4 bd 00 00 37 3d ce 97 8e bd
       -0.06864658 -0.08024498 0.044677734 -0.06962548
0001d0 8c 87 62 bd f4 08 bb 3d 94 73 6e bd 03 50 6c bd
       -0.05530505 0.09132567 -0.058215693 -0.057693493
0001e0 6e 5c 30 3c 3f d5 27 bd c6 5c 59 bd 52 44 90 bc
       0.010764224 -0.04097485 -0.05306699 -0.017610703
0001f0 2e 36 41 3d d2 84 7a bd b9 91 b7 bc ea bb 07 3e
       0.04717081 -0.061161824 -0.022408353 0.13255277
000200 0a af 0a be 51 2a 69 3d 8e d2 79 3d 70 9d 0c 3e
       -0.13543335 0.05692512 0.060991816 0.13731933
000210 81 ee 6d bc 06 28 21 3d 53 71 91 bd 7d a3 fc bc
       -0.014522196 0.03934481 -0.07101693 -0.030839676
000220 0f 72 23 3e 7c 1f 81 bd 30 dd a2 bd 6a 40 86 3d
       0.15961479 -0.06304833 -0.079523444 0.06555255
000230 2f 7b 1f bd 41 71 8a bd 72 4f 46 3d 98 c2 a1 3d
       -0.038935836 -0.06759883 0.04841561 0.07898444
000240 18 51 fe bc 93 7d 89 3d eb 54 6d 3d b0 85 80 bd
       -0.031044528 0.067134045 0.057942312 -0.06275499
000250 06 c3 da 3c 2c 1d e0 3c 0f 1d d0 3c 55 35 e4 bd
       0.026704323 0.02735766 0.025404481 -0.11142985
000260 d5 a8 17 bd c5 19 95 3d 7c 69 82 bd 99 e8 02 bd
       -0.037026245 0.07280306 -0.06367776 -0.031960104
000270 9d d1 5a bd 90 49 64 3d f7 b0 1a 3c 37 b5 2f bd
       -0.05342256 0.055734217 0.009441606 -0.04289743
000280 7d 1e de 3c 30 b1 e0 bc 3f c7 a0 3d 66 ac 9f 3d
       0.027114147 -0.02742824 0.07850503 0.07796554
000290 4a 58 de 3c 8e 03 d2 3d 81 6d 26 3d 14 8b aa bd
       0.027141709 0.10254584 0.040631775 -0.08327308
0002a0 62 da 32 bd 59 2a 38 3c 5f 58 83 3c 5c 4b b9 bc
       -0.043665297 0.011240565 0.01603335 -0.022618942
0002b0 59 a3 7f 3d ef bf d8 ba 26 2c d2 bc 84 83 33 3d
       0.06241164 -0.0016536693 -0.025655817 0.043826595
0002c0 bc f2 51 bc d1 45 8c 3d cc ee d2 3c c4 f1 c5 bc
       -0.01281422 0.06849254 0.025748633 -0.024163134
0002d0 d5 0e a7 3d 3e a2 3a bd eb a3 03 3e 4c 23 01 bc
       0.08157126 -0.045564882 0.12855498 -0.007881951
0002e0 cc ae 37 3d df 36 1a 3d f7 c0 06 bd 5b a9 d9 3d
       0.044844434 0.037649985 -0.03289887 0.10628005
0002f0 bc 75 0a bd 92 d6 b7 bd b5 bf d7 bd ba a7 79 3d
       -0.033803686 -0.08976473 -0.10534612 0.060950972
000300 14 61 b9 3c b9 20 4a 3d b0 16 37 bd a1 74 f9 bb
       0.022629298 0.049347613 -0.04469937 -0.00761278
000310 84 ce 27 3d b9 f6 d7 3d 3d 41 c4 3d bd 9a fe bb
       0.040968433 0.105451055 0.09582756 -0.007769911
000320 cf e4 a6 3b 84 2c db 3a e7 42 5e bd 13 7a c4 bd
       0.005093194 0.0016721641 -0.05426302 -0.09593596
000330 89 b6 01 3d c3 8c 58 bd 8c 22 52 bc 6a 29 bc bc
       0.03166822 -0.052868616 -0.012825619 -0.022968967
000340 b1 c3 bb bd d6 88 ce 3c fb dc 3d 3e 4c 52 a4 3b
       -0.091681845 0.025211733 0.18541329 0.0050146934
000350 4f 2c 4d bd 9f 9a 24 bd dc e7 6e 3c 23 f6 e7 bc
       -0.050091084 -0.04018652 0.014581647 -0.02831561
000360 20 67 37 bd 35 19 50 3d 55 ca 06 3d cc a5 b4 3d
       -0.044776082 0.05080529 0.032907803 0.08820686
000370 aa 65 b4 bd 0c 97 26 bd e6 a5 12 be b2 7c 90 3d
       -0.088084534 -0.040671393 -0.14321098 0.07055034
000380 e3 79 c9 3d f6 b8 51 bd 00 6d 24 3d 3c b0 98 3d
       0.09837701 -0.051201783 0.040143013 0.07455489
000390 c8 56 c7 bd 83 83 90 3c 8e 58 84 bd 6b 4d 26 be
       -0.09733349 0.017640835 -0.06462203 -0.1624047
0003a0 bb 51 09 3d f2 a4 7c bd 48 38 fb bd 48 74 e3 3c
       0.03352521 -0.06168074 -0.12266594 0.027765408
0003b0 97 1f 64 bd d2 0b 26 bd a9 1f b6 bd e9 8f 06 3e
       -0.05569419 -0.040538616 -0.088927574 0.13140835
0003c0 d3 90 1b be 3f bf 39 3d 94 7c be 3d 0d 85 6c 3d
       -0.15191965 0.045348402 0.09301105 0.057744075
0003d0 73 33 5b 3d 11 02 a5 3d 33 39 c5 3d de 89 2f bc
       0.053515863 0.08057035 0.096300505 -0.010714022
0003e0 61 d6 ff bd 88 ff bc bd a7 b8 2d 3d 58 57 40 bd
       -0.124920614 -0.09228426 0.042412426 -0.046958297
0003f0 db f7 9b bd ae f6 73 bd e3 af 35 bb 37 15 5d 3d
       -0.07615634 -0.059561424 -0.0027723245 0.05397531

fc2.bias f4 [84]
000000 13 e8 58 bd 40 0e 94 3e 3c 98 58 3e 32 e4 b4 3d
       -0.0529557 0.28917122 0.21151823 0.08832587
000010 c6 5f a2 bd 99 a9 02 3a 23 9f 35 3e 4a b2 46 3d
       -0.079284236 0.00049843785 0.17736487 0.048509873
000020 72 94 c6 3d dc e3 d7 3d 4c 05 8d 3d 02 ab 75 3b
       0.096962824 0.105415076 0.06885776 0.0037485962
000030 8a 39 60 3d 76 27 a1 3e 9d b4 97 3d e6 2c 00 bd
       0.054742374 0.3147542 0.07407496 -0.03129282
000040 2a c0 fa 3c c2 27 68 bd 58 cf 1b bd a2 90 04 3e
       0.03060921 -0.05667854 -0.038039535 0.12945798
000050 94 1f 7f 3e 0d 41 37 be b1 53 7f bc 07 36 be 3d
       0.2491439 -0.17895909 -0.015583918 0.09287649
000060 4f 96 4b bc 22 c1 8c 3d 1c e6 91 bd 48 19 28 be
       -0.012425973 0.06872775 -0.07123968 -0.16415894
000070 8c b9 98 bd 3e 91 89 3e a2 05 06 3e 6d 6e e2 bb
       -0.07457265 0.26868623 0.13088086 -0.0069101364
000080 b7 58 f8 3c 8e 7f 29 3e 98 38 74 3e 04 46 3f bd
       0.03031574 0.16552565 0.23849714 -0.04669763
000090 39 c9 63 3e 16 70 8a 3e e4 86 86 3e b8 bc 97 3d
       0.22244729 0.2703864 0.26274788 0.07409042
0000a0 d8 37 09 3d 4a 4e 4b 3d de d0 47 3e 4c 92 e5 3c
       0.033500522 0.04963521 0.1951327 0.028023861
0000b0 ea 8d 7b 3e 24 07 86 3d e0 02 f3 bc ba 8a 7e bd
       0.24565855 0.06544331 -0.029664457 -0.06214402
0000c0 94 8a 5f be 5b a5 cc 3d a5 38 12 be a2 7b 1a be
       -0.21830207 0.099924766 -0.1427942 -0.15086225
0000d0 e1 39 03 3d c4 ec a5 3c 3b 8f 8c 3d 54 46 24 bd
       0.03203762 0.0202545 0.068632565 -0.040106133
0000e0 77 95 c8 bd 92 43 ac 3d 47 83 8c 3c a1 3c 98 bd
       -0.09794133 0.084113255 0.017152442 -0.07433439
0000f0 24 09 59 bd db dc a1 3e 6b 59 13 3d d5 c8 4c bd
       -0.052987233 0.31613812 0.035973947 -0.049996216
000100 54 25 b0 3d e5 7e 07 bc 96 78 2a 3e 62 e7 d4 ba
       0.0860087 -0.00827 0.16647562 -0.0016243274
000110 06 e7 52 3d 82 75 4a 3d 30 44 8e 3e f2 a0 77 3d
       0.051489852 0.04942847 0.27786398 0.060456224
000120 41 ac c1 3b 7a ae 97 3d f0 18 19 3e 3b cf 02 3e
       0.005910427 0.07406326 0.14950919 0.12774365
000130 63 17 a6 bd a6 99 77 3e 91 15 d5 3c dc 29 1a be
       -0.081099294 0.24179706 0.02601126 -0.1505503
000140 39 44 a1 bc 37 d3 94 3c e0 22 7c 3e d6 24 d9 bc
       -0.019685851 0.018167121 0.24622679 -0.026506823

fc3.weight f4 [10, 84]
000000 87 d6 8f 3e 80 f3 fd bd 84 23 8e bd dc d0 9e 3d
       0.2809336 -0.123999596 -0.06940368 0.077546805
000010 66 5e 8d bc 58 14 95 bc 08 fe ea 3d 40 21 8e bd
       -0.017256927 -0.018198177 0.11474234 -0.06939936
000020 83 77 3c bd 79 6a 0e be e3 d6 2c be 5e 51 4a bc
       -0.046012413 -0.13907804 -0.16878848 -0.012348501
000030 93 2c ff bd eb 4d 6d 3e 46 37 b0 3d e5 b4 e4 3d
       -0.12459674 0.23174255 0.086042926 0.111673154
000040 14 6e 1f be fa 3e 6f 39 63 d2 3c bd 31 43 e6 bd
       -0.15569335 0.00022816277 -0.046099078 -0.112432845
000050 02 79 f1 bd 33 4e 0d bd a6 cb 22 be 96 63 ae bd
       -0.117906585 -0.034498405 -0.15897998 -0.08515088
000060 13 6b 08 3e 37 14 81 3e ea 98 1c bc ac f2 55 3e
       0.13322096 0.25210735 -0.009557942 0.20893353
000070 a2 91 a2 3d 92 bb b1 3e f7 21 08 bd 24 cf f1 3c
       0.079379335 0.34713417 -0.033235516 0.029517718
000080 bc c7 09 3e 7b 93 cb 3d 1d f3 dd 3b f3 48 c2 bd
       0.13455099 0.09940239 0.006773366 -0.0948657
000090 f5 f7 6c be eb 23 f0 bd aa 91 8a bd 48 6d 4f 3d
       -0.23141463 -0.11725601 -0.067660645 0.050641328
0000a0 95 f3 35 3e e1 74 6b be 63 20 41 3e d8 61 dd 3d
       0.177687 -0.22993805 0.18860011 0.10809678
0000b0 69 84 84 bd 97 99 5b 3d 96 d2 20 bd 69 e8 97 bd
       -0.06470568 0.05361327 -0.03926333 -0.074173756
0000c0 73 0c 00 bd 87 de 4b 3d e6 9d 8f 3c ca 85 ec bb
       -0.031261873 0.049772765 0.017531347 -0.0072180973
0000d0 08 6d bf bd 61 4e 8d 3c a9 a9 46 bd 13 a3 01 bd
       -0.09346968 0.017249288 -0.048501644 -0.03164966
0000e0 21 8d 53 3d 8b 89 76 be f3 18 65 bd 72 69 07 3d
       0.051648263 -0.24075906 -0.055931997 0.033059545
0000f0 36 fa 06 3e 33 ec 83 3e 92 fa a5 bd 90 9d f0 bd
       0.13181385 0.25766143 -0.08104433 -0.11748803
000100 06 35 2c be 3c 24 79 bd f7 9b 57 3e 82 e8 01 be
       -0.16817102 -0.06082557 0.2105559 -0.12686351
000110 e8 39 8c 3d cd b9 79 bd 94 8f 5f be 6f 0e 61 3d
       0.06846982 -0.06096821 -0.21832114 0.054945406
000120 3d 80 8f bd 37 52 0f 3e c8 65 9c 3c 3a 14 56 3e
       -0.070068814 0.13996206 0.019091502 0.20906153
000130 4b 74 e6 bc 69 1f 5b 3b 8d 0b b7 3c fc 15 0f 3e
       -0.028131625 0.003343547 0.022344375 0.1397323
000140 f3 32 d6 bd 8f 07 07 be 4c c2 7e 3d 4f de e5 bd
       -0.104589365 -0.13186477 0.062197015 -0.112240426
000150 fd 5b 0e 3d d9 a6 a0 be 34 29 7d be 55 d3 a5 3e
       0.034755696 -0.31377295 -0.24722749 0.32387796
000160 2d 60 79 bd 60 4b 7b 3d c2 0d 67 bc c3 3f a9 bd
       -0.060882736 0.06135118 -0.014102401 -0.08264115
000170 c6 bd 6d 3e d9 c8 c5 bd d5 aa 3f 3e 9e 6a ef 3d
       0.23216924 -0.09657449 0.18717511 0.116902575
000180 9b a8 25 be 59 ba 94 bd bb da 78 bd 0e b9 0a be
       -0.16177599 -0.072621055 -0.060755473 -0.13547155
000190 2e 3f fa bd 55 9b 73 bd ce c1 bf bd f5 71 85 3d
       -0.12219082 -0.059474308 -0.09363137 0.06515876
0001a0 fa 6f 91 be ac 04 ac 3e 73 4f 1f 3e f7 c1 d0 bd
       -0.28405744 0.33597314 0.15557651 -0.10193246
0001b0 47 b8 1d 3d 0d 75 cf bd 16 50 91 bd d0 52 37 3e
       0.03850582 -0.101297475 -0.07095353 0.17902684
0001c0 62 f8 18 3e 2e 58 46 be 93 c3 d4 bd 96 5a 25 3d
       0.149385 -0.19369575 -0.10388865 0.040369593
0001d0 60 00 18 be 53 bf ce 3d 76 3c 06 bd 7b ca 3e bd
       -0.14843893 0.10095086 -0.032772504 -0.04657982
0001e0 07 1c c0 bd 0d 16 d8 be 3a 28 3f bd 7c 55 f4 bd
       -0.09380346 -0.42204323 -0.046669222 -0.11930367
0001f0 db a7 5c bc 71 7b 38 bd a5 99 09 3e 62 11 ad bc
       -0.013467754 -0.045039598 0.13437517 -0.021126453
000200 05 5d 50 be 6b 17 c1 3c c8 16 90 bd 32 21 9a bc
       -0.20347984 0.023570737 -0.07035595 -0.018814657
000210 47 7b 86 3e c0 4c b4 ba 0c 97 6a 3d 56 4b 1b bc
       0.26265928 -0.0013755783 0.057272956 -0.009478411
000220 4b 35 66 bc 93 ea 2d bd a3 b6 2b 3e 5b 17 08 be
       -0.014050792 -0.042460036 0.16768889 -0.1329016
000230 98 fd db b8 6a dd 16 bd 4f 6f e4 ba a1 1f 92 bd
       -0.00010489969 -0.03683225 -0.0017428192 -0.07134939
000240 1a 19 9d bd c0 ac 49 bd ba 0e 96 bd b2 03 57 3e
       -0.07670803 -0.049237013 -0.073270276 0.20997503
000250 ef 12 a5 3c 9e ad 12 be 45 e0 65 3e b5 de 49 bd
       0.02015063 -0.14324042 0.22448833 -0.049284656
000260 80 7d 48 bd a3 37 86 3c 48 dc 4d be 82 fb bd 3e
       -0.04894781 0.016383952 -0.20103562 0.37105948
000270 96 b4 b5 bd 41 cb 0b be 26 e3 c7 3d a5 f4 38 3e
       -0.08872335 -0.13651754 0.09760122 0.18062074
000280 e2 d2 24 bc 21 72 b1 bd f8 7a 7b be 82 9f 6e 3e
       -0.010060044 -0.086643465 -0.24558628 0.23303035
000290 86 88 1d bd 70 49 c6 bd 41 62 c9 3c 42 eb 1b 3e
       -0.038460277 -0.09681976 0.024582984 0.15226462
0002a0 cc 83 bf bb 47 09 56 3e 7f 9c 54 3e 63 25 25 be
       -0.005844569 0.20901977 0.20762824 -0.16127543
0002b0 34 c1 95 3d b3 cc 5f bd 9f 22 bd bb ee ea e7 3d
       0.07312241 -0.054638576 -0.0057719494 0.11324106
0002c0 3b 1b c4 3d 78 86 86 3d c0 c2 26 bd 5f bb be 3d
       0.09575506 0.06568617 -0.04071307 0.09313082
0002d0 6c a1 5e bd fc b9 85 3e d3 8c 63 3e 78 ca ca 3d
       -0.054353163 0.26118457 0.22221689 0.09901899
0002e0 f3 3b 68 bd 6e b8 d9 bd e3 b8 6d 3d fe 9b 35 3e
       -0.056697797 -0.1063088 0.05803765 0.17735288
0002f0 05 66 8f 3e 39 3e 2e be 41 1d 84 bd d9 8a ac bd
       0.28007522 -0.17015924 -0.06450892 -0.084249206
000300 4a be 37 be a9 b0 f6 3c cb 83 99 bd a6 e0 75 be
       -0.17943683 0.030113535 -0.07495841 -0.24011478
000310 81 f3 b6 3c 2c ad c1 bd 6f c3 a9 bd 1c 48 3f 3d
       0.022332909 -0.09456858 -0.08289229 0.04669963
000320 cf 16 a3 bd de ec 05 bc 03 43 a9 3d 6f 57 ae 3d
       -0.07963335 -0.008174149 0.082647346 0.085127704
000330 2a 52 d4 bb 09 7c 54 3e 72 af 66 be fc df 94 3c
       -0.0064795213 0.2075044 -0.22527865 0.01817321
000340 65 32 15 3d 84 32 20 bd ec 28 91 3b aa 5b 28 ba
       0.036425013 -0.039110675 0.004429927 -0.00064223504
000350 df 28 bb bd c6 aa 18 bd d7 18 6b bd 98 e5 21 3d
       -0.09138655 -0.037272237 -0.057396736 0.0395256
000360 a8 bc 38 bc e9 d2 a6 3d 54 5e 01 3e 61 68 47 3d
       -0.011275448 0.08145697 0.1263364 0.048683528
000370 60 4e b9 bc 80 1a 6b bd 48 c8 2a be bc a3 01 bd
       -0.02262038 -0.05739832 -0.16677964 -0.03165029
000380 2b 54 a9 3c c3 34 f1 bc 36 ac 21 3c c9 f3 bc bc
       0.020670017 -0.029444104 0.009867718 -0.023065465
000390 e2 98 a9 bd d1 77 b5 3e e3 a6 4f bd cf b5 19 3e
       -0.08281113 0.35442975 -0.050696265 0.1501076
0003a0 3d 54 a1 3d da 94 f5 bb f0 09 21 be 9f 21 53 3e
       0.07877395 -0.007494551 -0.15726447 0.20618294
0003b0 9c 53 34 3d 21 76 95 3d fe 27 c6 3d c2 5d 45 be
       0.04402505 0.07297922 0.09675597 -0.19274047
0003c0 57 c7 ae bb c8 64 14 3e eb 41 da 3d fc d2 ef 3d
       -0.0053338218 0.1449157 0.10657104 0.11710164
0003d0 2a f2 b7 3d e2 27 af 3d 39 bc 38 3c 0b 5e ac bd
       0.08981736 0.08552529 0.0112753445 -0.08416375
0003e0 cb 34 b8 bd 97 e5 38 3e de 5b a8 bc be 6d 39 be
       -0.089944445 0.18056332 -0.020551618 -0.1810827
0003f0 75 6c 7c bd 76 9f 08 bd 66 92 9d 3d 3c 06 40 be
       -0.06162687 -0.0333552 0.07693939 -0.18752378

fc3.bias f4 [10]
000000 69 79 10 bc d7 0d 04 bf 8b aa 36 3e dd 1e 26 3e
       -0.008818009 -0.5158362 0.17838494 0.16222711
000010 e1 6e cb 3e b5 ff 19 be 1d d9 2a 3d 97 15 8e be
       0.3973303 -0.1503895 0.04171096 -0.27750847
000020 e4 70 1d 3f 11 ee c2 be
       0.6150038 -0.38072255
